…
l: False\n","no_instance: True\n","no_lsgan: False\n","no_vgg_loss: False\n","norm: instance\n","num_D: 2\n","output_nc: 3\n","phase: train\n","pool_size: 0\n","print_freq: 100\n","resize_or_crop: none\n","save_epoch_freq: 5\n","save_latest_freq: 1000\n","serial_batches: False\n","tf_log: False\n","use_dropout: False\n","verbose: False\n","which_epoch: latest\n","-------------- End ----------------\n","CustomDatasetDataLoader\n","dataset [AlignedDataset] was created\n","#training images = 1480\n","GlobalGenerator(\n","  (model): Sequential(\n","    (0): ReflectionPad2d((3, 3, 3, 3))\n","    (1): Conv2d(3, 64, kernel_size=(7, 7), stride=(1, 1))\n","    (2): InstanceNorm2d(64, eps=1e-05, momentum=0.1, affine=False, track_running_stats=False)\n","    (3): ReLU(inplace=True)\n","    (4): Conv2d(64, 128, kernel_size=(3, 3), stride=(2, 2), padding=(1, 1))\n","    (5): InstanceNorm2d(128, eps=1e-05, momentum=0.1, affine=False, track_running_stats=False)\n","    (6): ReLU(inplace=True)\n","    (7): Conv2d(128, 256, kernel_size=(3, 3), stride=(2, 2), padding=(1, 1))\n","    (8): InstanceNorm2d(256, eps=1e-05, momentum=0.1, affine=False, track_running_stats=False)\n","    (9): ReLU(inplace=True)\n","    (10): Conv2d(256, 512, kernel_size=(3, 3), stride=(2, 2), padding=(1, 1))\n","    (11): InstanceNorm2d(512, eps=1e-05, momentum=0.1, affine=False, track_running_stats=False)\n","    (12): ReLU(inplace=True)\n","    (13): Conv2d(512, 1024, kernel_size=(3, 3), stride=(2, 2), padding=(1, 1))\n","    (14): InstanceNorm2d(1024, eps=1e-05, momentum=0.1, affine=False, track_running_stats=False)\n","    (15): ReLU(inplace=True)\n","    (16): ResnetBlock(\n","      (conv_block): Sequential(\n","        (0): ReflectionPad2d((1, 1, 1, 1))\n","        (1): Conv2d(1024, 1024, kernel_size=(3, 3), stride=(1, 1))\n","        (2): InstanceNorm2d(1024, eps=1e-05, momentum=0.1, affine=False, track_running_stats=False)\n","        (3): ReLU(inplace=True)\n","        (4): ReflectionPad2d((1, 1, 1, 1))\n","        (5): Conv2d(1024, 1024, kernel_size=(3, 3), stride=(1, 1))\n","        (6): InstanceNorm2d(1024, eps=1e-05, momentum=0.1, affine=False, track_running_stats=False)\n","      )\n","    )\n","    (17): ResnetBlock(\n","      (conv_block): Sequential(\n","        (0): ReflectionPad2d((1, 1, 1, 1))\n","        (1): Conv2d(1024, 1024, kernel_size=(3, 3), stride=(1, 1))\n","        (2): InstanceNorm2d(1024, eps=1e-05, momentum=0.1, affine=False, track_running_stats=False)\n","        (3): ReLU(inplace=True)\n","        (4): ReflectionPad2d((1, 1, 1, 1))\n","        (5): Conv2d(1024, 1024, kernel_size=(3, 3), stride=(1, 1))\n","        (6): InstanceNorm2d(1024, eps=1e-05, momentum=0.1, affine=False, track_running_stats=False)\n","      )\n","    )\n","    (18): ResnetBlock(\n","      (conv_block): Sequential(\n","        (0): ReflectionPad2d((1, 1, 1, 1))\n","        (1): Conv2d(1024, 1024, kernel_size=(3, 3), stride=(1, 1))\n","        (2): InstanceNorm2d(1024, eps=1e-05, momentum=0.1, affine=False, track_running_stats=False)\n","        (3): ReLU(inplace=True)\n","        (4): ReflectionPad2d((1, 1, 1, 1))\n","        (5): Conv2d(1024, 1024, kernel_size=(3, 3), stride=(1, 1))\n","        (6): InstanceNorm2d(1024, eps=1e-05, momentum=0.1, affine=False, track_running_stats=False)\n","      )\n","    )\n","    (19): ResnetBlock(\n","      (conv_block): Sequential(\n","        (0): ReflectionPad2d((1, 1, 1, 1))\n","        (1): Conv2d(1024, 1024, kernel_size=(3, 3), stride=(1, 1))\n","        (2): InstanceNorm2d(1024, eps=1e-05, momentum=0.1, affine=False, track_running_stats=False)\n","        (3): ReLU(inplace=True)\n","        (4): ReflectionPad2d((1, 1, 1, 1))\n","        (5): Conv2d(1024, 1024, kernel_size=(3, 3), stride=(1, 1))\n","        (6): InstanceNorm2d(1024, eps=1e-05, momentum=0.1, affine=False, track_running_stats=False)\n","      )\n","    )\n","    (20): ResnetBlock(\n","      (conv_block): Sequential(\n","        (0): ReflectionPad2d((1, 1, 1, 1))\n","        (1): Conv2d(1024, 1024, kernel_size=(3, 3), stride=(1, 1))\n","        (2): InstanceNorm2d(1024, eps=1e-05, momentum=0.1, affine=False, track_running_stats=False)\n","        (3): ReLU(inplace=True)\n","        (4): ReflectionPad2d((1, 1, 1, 1))\n","        (5): Conv2d(1024, 1024, kernel_size=(3, 3), stride=(1, 1))\n","        (6): InstanceNorm2d(1024, eps=1e-05, momentum=0.1, affine=False, track_running_stats=False)\n","      )\n","    )\n","    (21): ResnetBlock(\n","      (conv_block): Sequential(\n","        (0): ReflectionPad2d((1, 1, 1, 1))\n","        (1): Conv2d(1024, 1024, kernel_size=(3, 3), stride=(1, 1))\n","        (2): InstanceNorm2d(1024, eps=1e-05, momentum=0.1, affine=False, track_running_stats=False)\n","        (3): ReLU(inplace=True)\n","        (4): ReflectionPad2d((1, 1, 1, 1))\n","        (5): Conv2d(1024, 1024, kernel_size=(3, 3), stride=(1, 1))\n","        (6): InstanceNorm2d(1024, eps=1e-05, momentum=0.1, affine=False, track_running_stats=False)\n","      )\n","    )\n","    (22): ResnetBlock(\n","      (conv_block): Sequential(\n","        (0): ReflectionPad2d((1, 1, 1, 1))\n","        (1): Conv2d(1024, 1024, kernel_size=(3, 3), stride=(1, 1))\n","        (2): InstanceNorm2d(1024, eps=1e-05, momentum=0.1, affine=False, track_running_stats=False)\n","        (3): ReLU(inplace=True)\n","        (4): ReflectionPad2d((1, 1, 1, 1))\n","        (5): Conv2d(1024, 1024, kernel_size=(3, 3), stride=(1, 1))\n","        (6): InstanceNorm2d(1024, eps=1e-05, momentum=0.1, affine=False, track_running_stats=False)\n","      )\n","    )\n","    (23): ResnetBlock(\n","      (conv_block): Sequential(\n","        (0): ReflectionPad2d((1, 1, 1, 1))\n","        (1): Conv2d(1024, 1024, kernel_size=(3, 3), stride=(1, 1))\n","        (2): InstanceNorm2d(1024, eps=1e-05, momentum=0.1, affine=False, track_running_stats=False)\n","        (3): ReLU(inplace=True)\n","        (4): ReflectionPad2d((1, 1, 1, 1))\n","        (5): Conv2d(1024, 1024, kernel_size=(3, 3), stride=(1, 1))\n","        (6): InstanceNorm2d(1024, eps=1e-05, momentum=0.1, affine=False, track_running_stats=False)\n","      )\n","    )\n","    (24): ResnetBlock(\n","      (conv_block): Sequential(\n","        (0): ReflectionPad2d((1, 1, 1, 1))\n","        (1): Conv2d(1024, 1024, kernel_size=(3, 3), stride=(1, 1))\n","        (2): InstanceNorm2d(1024, eps=1e-05, momentum=0.1, affine=False, track_running_stats=False)\n","        (3): ReLU(inplace=True)\n","        (4): ReflectionPad2d((1, 1, 1, 1))\n","        (5): Conv2d(1024, 1024, kernel_size=(3, 3), stride=(1, 1))\n","        (6): InstanceNorm2d(1024, eps=1e-05, momentum=0.1, affine=False, track_running_stats=False)\n","      )\n","    )\n","    (25): ConvTranspose2d(1024, 512, kernel_size=(3, 3), stride=(2, 2), padding=(1, 1), output_padding=(1, 1))\n","    (26): InstanceNorm2d(512, eps=1e-05, momentum=0.1, affine=False, track_running_stats=False)\n","    (27): ReLU(inplace=True)\n","    (28): ConvTranspose2d(512, 256, kernel_size=(3, 3), stride=(2, 2), padding=(1, 1), output_padding=(1, 1))\n","    (29): InstanceNorm2d(256, eps=1e-05, momentum=0.1, affine=False, track_running_stats=False)\n","    (30): ReLU(inplace=True)\n","    (31): ConvTranspose2d(256, 128, kernel_size=(3, 3), stride=(2, 2), padding=(1, 1), output_padding=(1, 1))\n","    (32): InstanceNorm2d(128, eps=1e-05, momentum=0.1, affine=False, track_running_stats=False)\n","    (33): ReLU(inplace=True)\n","    (34): ConvTranspose2d(128, 64, kernel_size=(3, 3), stride=(2, 2), padding=(1, 1), output_padding=(1, 1))\n","    (35): InstanceNorm2d(64, eps=1e-05, momentum=0.1, affine=False, track_running_stats=False)\n","    (36): ReLU(inplace=True)\n","    (37): ReflectionPad2d((3, 3, 3, 3))\n","    (38): Conv2d(64, 3, kernel_size=(7, 7), stride=(1, 1))\n","    (39): Tanh()\n","  )\n",")\n","MultiscaleDiscriminator(\n","  (scale0_layer0): Sequential(\n","    (0): Conv2d(6, 64, kernel_size=(4, 4), stride=(2, 2), padding=(2, 2))\n","    (1): LeakyReLU(negative_slope=0.2, inplace=True)\n","  )\n","  (scale0_layer1): Sequential(\n","    (0): Conv2d(64, 128, kernel_size=(4, 4), stride=(2, 2), padding=(2, 2))\n","    (1): InstanceNorm2d(128, eps=1e-05, momentum=0.1, affine=False, track_running_stats=False)\n","    (2): LeakyReLU(negative_slope=0.2, inplace=True)\n","  )\n","  (scale0_layer2): Sequential(\n","    (0): Conv2d(128, 256, kernel_size=(4, 4), stride=(2, 2), padding=(2, 2))\n","    (1): InstanceNorm2d(256, eps=1e-05, momentum=0.1, affine=False, track_running_stats=False)\n","    (2): LeakyReLU(negative_slope=0.2, inplace=True)\n","  )\n","  (scale0_layer3): Sequential(\n","    (0): Conv2d(256, 512, kernel_size=(4, 4), stride=(1, 1), padding=(2, 2))\n","    (1): InstanceNorm2d(512, eps=1e-05, momentum=0.1, affine=False, track_running_stats=False)\n","    (2): LeakyReLU(negative_slope=0.2, inplace=True)\n","  )\n","  (scale0_layer4): Sequential(\n","    (0): Conv2d(512, 1, kernel_size=(4, 4), stride=(1, 1), padding=(2, 2))\n","  )\n","  (scale1_layer0): Sequential(\n","    (0): Conv2d(6, 64, kernel_size=(4, 4), stride=(2, 2), padding=(2, 2))\n","    (1): LeakyReLU(negative_slope=0.2, inplace=True)\n","  )\n","  (scale1_layer1): Sequential(\n","    (0): Conv2d(64, 128, kernel_size=(4, 4), stride=(2, 2), padding=(2, 2))\n","    (1): InstanceNorm2d(128, eps=1e-05, momentum=0.1, affine=False, track_running_stats=False)\n","    (2): LeakyReLU(negative_slope=0.2, inplace=True)\n","  )\n","  (scale1_layer2): Sequential(\n","    (0): Conv2d(128, 256, kernel_size=(4, 4), stride=(2, 2), padding=(2, 2))\n","    (1): InstanceNorm2d(256, eps=1e-05, momentum=0.1, affine=False, track_running_stats=False)\n","    (2): LeakyReLU(negative_slope=0.2, inplace=True)\n","  )\n","  (scale1_layer3): Sequential(\n","    (0): Conv2d(256, 512, kernel_size=(4, 4), stride=(1, 1), padding=(2, 2))\n","    (1): InstanceNorm2d(512, eps=1e-05, momentum=0.1, affine=False, track_running_stats=False)\n","    (2): LeakyReLU(negative_slope=0.2, inplace=True)\n","  )\n","  (scale1_layer4): Sequential(\n","    (0): Conv2d(512, 1, kernel_size=(4, 4), stride=(1, 1), padding=(2, 2))\n","  )\n","  (downsample): AvgPool2d(kernel_size=3, stride=2, padding=[1, 1])\n",")\n","/usr/local/lib/python3.11/dist-packages/torchvision/models/_utils.py:208: UserWarning: The parameter 'pretrained' is deprecated since 0.13 and may be removed in the future, please use 'weights' instead.\n","  warnings.warn(\n","/usr/local/lib/python3.1
…
ihouse_hd\n","nef: 16\n","netG: global\n","ngf: 64\n","niter_fix_global: 0\n","no_flip: False\n","no_instance: True\n","norm: instance\n","ntest: inf\n","onnx: None\n","output_nc: 3\n","phase: test\n","resize_or_crop: none\n","results_dir: ./results/\n","serial_batches: False\n","tf_log: False\n","use_dropout: False\n","use_encoded_image: False\n","verbose: False\n","which_epoch: latest\n","-------------- End ----------------\n","CustomDatasetDataLoader\n","dataset [AlignedDataset] was created\n","GlobalGenerator(\n","  (model): Sequential(\n","    (0): ReflectionPad2d((3, 3, 3, 3))\n","    (1): Conv2d(3, 64, kernel_size=(7, 7), stride=(1, 1))\n","    (2): InstanceNorm2d(64, eps=1e-05, momentum=0.1, affine=False, track_running_stats=False)\n","    (3): ReLU(inplace=True)\n","    (4): Conv2d(64, 128, kernel_size=(3, 3), stride=(2, 2), padding=(1, 1))\n","    (5): InstanceNorm2d(128, eps=1e-05, momentum=0.1, affine=False, track_running_stats=False)\n","    (6): ReLU(inplace=True)\n","    (7): Conv2d(128, 256, kernel_size=(3, 3), stride=(2, 2), padding=(1, 1))\n","    (8): InstanceNorm2d(256, eps=1e-05, momentum=0.1, affine=False, track_running_stats=False)\n","    (9): ReLU(inplace=True)\n","    (10): Conv2d(256, 512, kernel_size=(3, 3), stride=(2, 2), padding=(1, 1))\n","    (11): InstanceNorm2d(512, eps=1e-05, momentum=0.1, affine=False, track_running_stats=False)\n","    (12): ReLU(inplace=True)\n","    (13): Conv2d(512, 1024, kernel_size=(3, 3), stride=(2, 2), padding=(1, 1))\n","    (14): InstanceNorm2d(1024, eps=1e-05, momentum=0.1, affine=False, track_running_stats=False)\n","    (15): ReLU(inplace=True)\n","    (16): ResnetBlock(\n","      (conv_block): Sequential(\n","        (0): ReflectionPad2d((1, 1, 1, 1))\n","        (1): Conv2d(1024, 1024, kernel_size=(3, 3), stride=(1, 1))\n","        (2): InstanceNorm2d(1024, eps=1e-05, momentum=0.1, affine=False, track_running_stats=False)\n","        (3): ReLU(inplace=True)\n","        (4): ReflectionPad2d((1, 1, 1, 1))\n","        (5): Conv2d(1024, 1024, kernel_size=(3, 3), stride=(1, 1))\n","        (6): InstanceNorm2d(1024, eps=1e-05, momentum=0.1, affine=False, track_running_stats=False)\n","      )\n","    )\n","    (17): ResnetBlock(\n","      (conv_block): Sequential(\n","        (0): ReflectionPad2d((1, 1, 1, 1))\n","        (1): Conv2d(1024, 1024, kernel_size=(3, 3), stride=(1, 1))\n","        (2): InstanceNorm2d(1024, eps=1e-05, momentum=0.1, affine=False, track_running_stats=False)\n","        (3): ReLU(inplace=True)\n","        (4): ReflectionPad2d((1, 1, 1, 1))\n","        (5): Conv2d(1024, 1024, kernel_size=(3, 3), stride=(1, 1))\n","        (6): InstanceNorm2d(1024, eps=1e-05, momentum=0.1, affine=False, track_running_stats=False)\n","      )\n","    )\n","    (18): ResnetBlock(\n","      (conv_block): Sequential(\n","        (0): ReflectionPad2d((1, 1, 1, 1))\n","        (1): Conv2d(1024, 1024, kernel_size=(3, 3), stride=(1, 1))\n","        (2): InstanceNorm2d(1024, eps=1e-05, momentum=0.1, affine=False, track_running_stats=False)\n","        (3): ReLU(inplace=True)\n","        (4): ReflectionPad2d((1, 1, 1, 1))\n","        (5): Conv2d(1024, 1024, kernel_size=(3, 3), stride=(1, 1))\n","        (6): InstanceNorm2d(1024, eps=1e-05, momentum=0.1, affine=False, track_running_stats=False)\n","      )\n","    )\n","    (19): ResnetBlock(\n","      (conv_block): Sequential(\n","        (0): ReflectionPad2d((1, 1, 1, 1))\n","        (1): Conv2d(1024, 1024, kernel_size=(3, 3), stride=(1, 1))\n","        (2): InstanceNorm2d(1024, eps=1e-05, momentum=0.1, affine=False, track_running_stats=False)\n","        (3): ReLU(inplace=True)\n","        (4): ReflectionPad2d((1, 1, 1, 1))\n","        (5): Conv2d(1024, 1024, kernel_size=(3, 3), stride=(1, 1))\n","        (6): InstanceNorm2d(1024, eps=1e-05, momentum=0.1, affine=False, track_running_stats=False)\n","      )\n","    )\n","    (20): ResnetBlock(\n","      (conv_block): Sequential(\n","        (0): ReflectionPad2d((1, 1, 1, 1))\n","        (1): Conv2d(1024, 1024, kernel_size=(3, 3), stride=(1, 1))\n","        (2): InstanceNorm2d(1024, eps=1e-05, momentum=0.1, affine=False, track_running_stats=False)\n","        (3): ReLU(inplace=True)\n","        (4): ReflectionPad2d((1, 1, 1, 1))\n","        (5): Conv2d(1024, 1024, kernel_size=(3, 3), stride=(1, 1))\n","        (6): InstanceNorm2d(1024, eps=1e-05, momentum=0.1, affine=False, track_running_stats=False)\n","      )\n","    )\n","    (21): ResnetBlock(\n","      (conv_block): Sequential(\n","        (0): ReflectionPad2d((1, 1, 1, 1))\n","        (1): Conv2d(1024, 1024, kernel_size=(3, 3), stride=(1, 1))\n","        (2): InstanceNorm2d(1024, eps=1e-05, momentum=0.1, affine=False, track_running_stats=False)\n","        (3): ReLU(inplace=True)\n","        (4): ReflectionPad2d((1, 1, 1, 1))\n","        (5): Conv2d(1024, 1024, kernel_size=(3, 3), stride=(1, 1))\n","        (6): InstanceNorm2d(1024, eps=1e-05, momentum=0.1, affine=False, track_running_stats=False)\n","      )\n","    )\n","    (22): ResnetBlock(\n","      (conv_block): Sequential(\n","        (0): ReflectionPad2d((1, 1, 1, 1))\n","        (1): Conv2d(1024, 1024, kernel_size=(3, 3), stride=(1, 1))\n","        (2): InstanceNorm2d(1024, eps=1e-05, momentum=0.1, affine=False, track_running_stats=False)\n","        (3): ReLU(inplace=True)\n","        (4): ReflectionPad2d((1, 1, 1, 1))\n","        (5): Conv2d(1024, 1024, kernel_size=(3, 3), stride=(1, 1))\n","        (6): InstanceNorm2d(1024, eps=1e-05, momentum=0.1, affine=False, track_running_stats=False)\n","      )\n","    )\n","    (23): ResnetBlock(\n","      (conv_block): Sequential(\n","        (0): ReflectionPad2d((1, 1, 1, 1))\n","        (1): Conv2d(1024, 1024, kernel_size=(3, 3), stride=(1, 1))\n","        (2): InstanceNorm2d(1024, eps=1e-05, momentum=0.1, affine=False, track_running_stats=False)\n","        (3): ReLU(inplace=True)\n","        (4): ReflectionPad2d((1, 1, 1, 1))\n","        (5): Conv2d(1024, 1024, kernel_size=(3, 3), stride=(1, 1))\n","        (6): InstanceNorm2d(1024, eps=1e-05, momentum=0.1, affine=False, track_running_stats=False)\n","      )\n","    )\n","    (24): ResnetBlock(\n","      (conv_block): Sequential(\n","        (0): ReflectionPad2d((1, 1, 1, 1))\n","        (1): Conv2d(1024, 1024, kernel_size=(3, 3), stride=(1, 1))\n","        (2): InstanceNorm2d(1024, eps=1e-05, momentum=0.1, affine=False, track_running_stats=False)\n","        (3): ReLU(inplace=True)\n","        (4): ReflectionPad2d((1, 1, 1, 1))\n","        (5): Conv2d(1024, 1024, kernel_size=(3, 3), stride=(1, 1))\n","        (6): InstanceNorm2d(1024, eps=1e-05, momentum=0.1, affine=False, track_running_stats=False)\n","      )\n","    )\n","    (25): ConvTranspose2d(1024, 512, kernel_size=(3, 3), stride=(2, 2), padding=(1, 1), output_padding=(1, 1))\n","    (26): InstanceNorm2d(512, eps=1e-05, momentum=0.1, affine=False, track_running_stats=False)\n","    (27): ReLU(inplace=True)\n","    (28): ConvTranspose2d(512, 256, kernel_size=(3, 3), stride=(2, 2), padding=(1, 1), output_padding=(1, 1))\n","    (29): InstanceNorm2d(256, eps=1e-05, momentum=0.1, affine=False, track_running_stats=False)\n","    (30): ReLU(inplace=True)\n","    (31): ConvTranspose2d(256, 128, kernel_size=(3, 3), stride=(2, 2), padding=(1, 1), output_padding=(1, 1))\n","    (32): InstanceNorm2d(128, eps=1e-05, momentum=0.1, affine=False, track_running_stats=False)\n","    (33): ReLU(inplace=True)\n","    (34): ConvTranspose2d(128, 64, kernel_size=(3, 3), stride=(2, 2), padding=(1, 1), output_padding=(1, 1))\n","    (35): InstanceNorm2d(64, eps=1e-05, momentum=0.1, affine=False, track_running_stats=False)\n","    (36): ReLU(inplace=True)\n","    (37): ReflectionPad2d((3, 3, 3, 3))\n","    (38): Conv2d(64, 3, kernel_size=(7, 7), stride=(1, 1))\n","    (39): Tanh()\n","  )\n",")\n","./checkpoints/yalihouse_hd/latest_net_G.pth not exists yet!\n","Traceback (most recent call last):\n","  File \"/content/pix2pixHD/test.py\", line 27, in <module>\n","    model = create_model(opt)\n","            ^^^^^^^^^^^^^^^^^\n","  File \"/content/pix2pixHD/models/models.py\", line 13, in create_model\n","    mod
…
